HomeWork/Kỳ 4/NLP501.9(Xử lý ngôn ngữ tự nhiên)/Project/ASG3/NLP501_trained_model_weights.pt (torch, 1814 bytes, 2 tensors)

fc.weight f4 [2, 10]
0	0xbd1312ca	-0.03590659
1	0xbcc0e6d7	-0.023547573
2	0xbe86e696	-0.26347798
3	0x3d1568e5	0.03647699
4	0x3e22834f	0.15870403
5	0xbe65675c	-0.2240271
6	0x3dbc5786	0.09196381
7	0x3c40d651	0.011769847
8	0xbc581008	-0.013187416
9	0x3e191809	0.14950575
10	0xbe211915	-0.15732224
11	0xbe549d27	-0.20763074
12	0x3e5ddfcb	0.21667401
13	0x3e18988e	0.14901945
14	0xbe07b37f	-0.13252066
15	0x3d970f05	0.073759116
16	0xbe42d967	-0.19028245
17	0xbd46471a	-0.04840765
18	0x3e0f9c04	0.14024359
19	0xbe2564d0	-0.16151738

fc.bias f4 [2]
0	0xbde7dbda	-0.1132123
1	0xbe12671b	-0.14297144
